…
2019-01-05 15:11:40.640239: I tensorflow/core/common_runtime/gpu/gpu_device.cc:1115] Created TensorFlow device (/job:localhost/replica:0/task:0/device:GPU:2 with 30387 MB memory) -> physical GPU (device: 2, name: Tesla V100-DGXS-32GB, pci bus id: 0000:0e:00.0, compute capability: 7.0)
2019-01-05 15:11:40.640551: I tensorflow/core/common_runtime/gpu/gpu_device.cc:1115] Created TensorFlow device (/job:localhost/replica:0/task:0/device:GPU:3 with 30387 MB memory) -> physical GPU (device: 3, name: Tesla V100-DGXS-32GB, pci bus id: 0000:0f:00.0, compute capability: 7.0)
_________________________________________________________________
Layer (type)                 Output Shape              Param #   
=================================================================
conv2d_1 (Conv2D)            (None, 227, 227, 32)      896       
_________________________________________________________________
activation_1 (Activation)    (None, 227, 227, 32)      0         
_________________________________________________________________
batch_normalization_1 (Batch (None, 227, 227, 32)      128       
_________________________________________________________________
conv2d_2 (Conv2D)            (None, 227, 227, 32)      9248      
_________________________________________________________________
activation_2 (Activation)    (None, 227, 227, 32)      0         
_________________________________________________________________
batch_normalization_2 (Batch (None, 227, 227, 32)      128       
_________________________________________________________________
max_pooling2d_1 (MaxPooling2 (None, 113, 113, 32)      0         
_________________________________________________________________
dropout_1 (Dropout)          (None, 113, 113, 32)      0         
_________________________________________________________________
conv2d_3 (Conv2D)            (None, 113, 113, 64)      18496     
_________________________________________________________________
activation_3 (Activation)    (None, 113, 113, 64)      0         
_________________________________________________________________
batch_normalization_3 (Batch (None, 113, 113, 64)      256       
_________________________________________________________________
conv2d_4 (Conv2D)            (None, 113, 113, 64)      36928     
_________________________________________________________________
activation_4 (Activation)    (None, 113, 113, 64)      0         
_________________________________________________________________
batch_normalization_4 (Batch (None, 113, 113, 64)      256       
_________________________________________________________________
max_pooling2d_2 (MaxPooling2 (None, 56, 56, 64)        0         
_________________________________________________________________
dropout_2 (Dropout)          (None, 56, 56, 64)        0         
_________________________________________________________________
conv2d_5 (Conv2D)            (None, 56, 56, 128)       73856     
_________________________________________________________________
activation_5 (Activation)    (None, 56, 56, 128)       0         
_________________________________________________________________
batch_normalization_5 (Batch (None, 56, 56, 128)       512       
_________________________________________________________________
conv2d_6 (Conv2D)            (None, 56, 56, 128)       147584    
_________________________________________________________________
activation_6 (Activation)    (None, 56, 56, 128)       0         
_________________________________________________________________
batch_normalization_6 (Batch (None, 56, 56, 128)       512       
_________________________________________________________________
max_pooling2d_3 (MaxPooling2 (None, 28, 28, 128)       0         
_________________________________________________________________
dropout_3 (Dropout)          (None, 28, 28, 128)       0         
_________________________________________________________________
flatten_1 (Flatten)          (None, 100352)            0         
_________________________________________________________________
dense_1 (Dense)              (None, 11)                1103883   
=================================================================
Total params: 1,392,683
Trainable params: 1,391,787
Non-trainable params: 896
_________________________________________________________________
Epoch 1/125
730/730 [==============================] - 490s 671ms/step - loss: 12.0053 - acc: 0.2510 - val_loss: 13.0495 - val_acc: 0.1911
Epoch 2/125
730/730 [==============================] - 484s 663ms/step - loss: 11.5964 - acc: 0.2809 - val_loss: 12.7955 - val_acc: 0.2081
…
