…
068e0:~$ python repetition.py 
Using TensorFlow backend.
Shape von immatrix1, 2 und gesamt
(35055, 154587)
(46740, 154587)
Shape von immatrix_val1, _valrot und gesamt
(8967, 154587)
(11956, 154587)
Label setzen
batchsize: 200
learnrate: 0.01
filters: 96
maske: 3
X_train shape: (46740, 227, 227, 3)
X_test shape: (11956, 227, 227, 3)
46740 train samples
11956 test samples
_________________________________________________________________
Layer (type)                 Output Shape              Param #   
=================================================================
conv2d_1 (Conv2D)            (None, 57, 57, 96)        2688      
_________________________________________________________________
max_pooling2d_1 (MaxPooling2 (None, 28, 28, 96)        0         
_________________________________________________________________
conv2d_2 (Conv2D)            (None, 24, 24, 256)       614656    
_________________________________________________________________
max_pooling2d_2 (MaxPooling2 (None, 11, 11, 256)       0         
_________________________________________________________________
conv2d_3 (Conv2D)            (None, 9, 9, 384)         885120    
_________________________________________________________________
conv2d_4 (Conv2D)            (None, 7, 7, 384)         1327488   
_________________________________________________________________
conv2d_5 (Conv2D)            (None, 5, 5, 256)         884992    
_________________________________________________________________
max_pooling2d_3 (MaxPooling2 (None, 2, 2, 256)         0         
_________________________________________________________________
dropout_1 (Dropout)          (None, 2, 2, 256)         0         
_________________________________________________________________
flatten_1 (Flatten)          (None, 1024)              0         
_________________________________________________________________
dense_1 (Dense)              (None, 9216)              9446400   
_________________________________________________________________
dropout_2 (Dropout)          (None, 9216)              0         
_________________________________________________________________
dense_2 (Dense)              (None, 4096)              37752832  
_________________________________________________________________
dense_3 (Dense)              (None, 11)                45067     
=================================================================
Total params: 50,959,243
Trainable params: 50,959,243
Non-trainable params: 0
_________________________________________________________________
Epoch 1/10
2019-01-06 08:36:57.837955: I tensorflow/core/platform/cpu_feature_guard.cc:141] Your CPU supports instructions that this TensorFlow binary was not compiled to use: AVX2 FMA
…
Test loss: 14.489569019178516
Test accuracy: 0.10103713617092712
2019-01-06 09:22:08.205404
on validation data
11956/11956 [==============================] - 5s 399us/step
accuaracy 10.103713617092712
Total loss 1448.9569019178516
batchsize: 64
learnrate: 0.0001
filters: 96
maske: 7
X_train shape: (46740, 227, 227, 3)
X_test shape: (11956, 227, 227, 3)
46740 train samples
11956 test samples
_________________________________________________________________
Layer (type)                 Output Shape              Param #   
=================================================================
conv2d_31 (Conv2D)           (None, 56, 56, 96)        14208     
_________________________________________________________________
max_pooling2d_19 (MaxPooling (None, 27, 27, 96)        0         
_________________________________________________________________
conv2d_32 (Conv2D)           (None, 23, 23, 256)       614656    
_________________________________________________________________
max_pooling2d_20 (MaxPooling (None, 11, 11, 256)       0         
_________________________________________________________________
conv2d_33 (Conv2D)           (None, 9, 9, 384)         885120    
_________________________________________________________________
conv2d_34 (Conv2D)           (None, 7, 7, 384)         1327488   
_________________________________________________________________
conv2d_35 (Conv2D)           (None, 5, 5, 256)         884992    
_________________________________________________________________
max_pooling2d_21 (MaxPooling (None, 2, 2, 256)         0         
_________________________________________________________________
dropout_13 (Dropout)         (None, 2, 2, 256)         0         
_________________________________________________________________
flatten_7 (Flatten)          (None, 1024)              0         
_________________________________________________________________
dense_19 (Dense)             (None, 9216)              9446400   
_________________________________________________________________
dropout_14 (Dropout)         (None, 9216)              0         
_________________________________________________________________
dense_20 (Dense)             (None, 4096)              37752832  
_________________________________________________________________
dense_21 (Dense)             (None, 11)                45067     
=================================================================
Total params: 50,970,763
Trainable params: 50,970,763
Non-trainable params: 0
_________________________________________________________________
Epoch 1/10
731/730 [==============================] - 37s 51ms/step - loss: 1.8991 - acc: 0.3183 - val_loss: 2.2110 - val_acc: 0.2893
Epoch 2/10
731/730 [==============================] - 37s 50ms/step - loss: 1.5828 - acc: 0.4463 - val_loss: 2.1547 - val_acc: 0.3131
…
