…
~$ python repetition_best.py
Using TensorFlow backend.
Shape von immatrix1, 2 und gesamt
(35055, 154587)
(46740, 154587)
Shape von immatrix_val1, _valrot und gesamt
(8967, 154587)
(11956, 154587)
Label setzen
batchsize: 64
learnrate: 0.0001
filters: 96
maske: 11
X_train shape: (46740, 227, 227, 3)
X_test shape: (11956, 227, 227, 3)
46740 train samples
11956 test samples
_________________________________________________________________
Layer (type)                 Output Shape              Param #   
=================================================================
conv2d_1 (Conv2D)            (None, 55, 55, 96)        34944     
_________________________________________________________________
max_pooling2d_1 (MaxPooling2 (None, 27, 27, 96)        0         
_________________________________________________________________
conv2d_2 (Conv2D)            (None, 23, 23, 256)       614656    
_________________________________________________________________
max_pooling2d_2 (MaxPooling2 (None, 11, 11, 256)       0         
_________________________________________________________________
conv2d_3 (Conv2D)            (None, 9, 9, 384)         885120    
_________________________________________________________________
conv2d_4 (Conv2D)            (None, 7, 7, 384)         1327488   
_________________________________________________________________
conv2d_5 (Conv2D)            (None, 5, 5, 256)         884992    
_________________________________________________________________
max_pooling2d_3 (MaxPooling2 (None, 2, 2, 256)         0         
_________________________________________________________________
dropout_1 (Dropout)          (None, 2, 2, 256)         0         
_________________________________________________________________
flatten_1 (Flatten)          (None, 1024)              0         
_________________________________________________________________
dense_1 (Dense)              (None, 9216)              9446400   
_________________________________________________________________
dropout_2 (Dropout)          (None, 9216)              0         
_________________________________________________________________
dense_2 (Dense)              (None, 4096)              37752832  
_________________________________________________________________
dense_3 (Dense)              (None, 11)                45067     
=================================================================
Total params: 50,991,499
Trainable params: 50,991,499
Non-trainable params: 0
_________________________________________________________________
Epoch 1/20
2019-01-06 11:48:21.140587: I tensorflow/core/platform/cpu_feature_guard.cc:141] Your CPU supports instructions that this TensorFlow binary was not compiled to use: AVX2 FMA
…
Test loss: 2.7870006325173913
Test accuracy: 0.4531615925058548
2019-01-06 12:44:12.090260
on validation data
11956/11956 [==============================] - 5s 377us/step
accuaracy 45.31615925058548
Total loss 278.70006325173915
batchsize: 64
learnrate: 0.0001
filters: 96
maske: 7
X_train shape: (46740, 227, 227, 3)
X_test shape: (11956, 227, 227, 3)
46740 train samples
11956 test samples
_________________________________________________________________
Layer (type)                 Output Shape              Param #   
=================================================================
conv2d_21 (Conv2D)           (None, 56, 56, 96)        14208     
_________________________________________________________________
max_pooling2d_13 (MaxPooling (None, 27, 27, 96)        0         
_________________________________________________________________
conv2d_22 (Conv2D)           (None, 23, 23, 256)       614656    
_________________________________________________________________
max_pooling2d_14 (MaxPooling (None, 11, 11, 256)       0         
_________________________________________________________________
conv2d_23 (Conv2D)           (None, 9, 9, 384)         885120    
_________________________________________________________________
conv2d_24 (Conv2D)           (None, 7, 7, 384)         1327488   
_________________________________________________________________
conv2d_25 (Conv2D)           (None, 5, 5, 256)         884992    
_________________________________________________________________
max_pooling2d_15 (MaxPooling (None, 2, 2, 256)         0         
_________________________________________________________________
dropout_9 (Dropout)          (None, 2, 2, 256)         0         
_________________________________________________________________
flatten_5 (Flatten)          (None, 1024)              0         
_________________________________________________________________
dense_13 (Dense)             (None, 9216)              9446400   
_________________________________________________________________
dropout_10 (Dropout)         (None, 9216)              0         
_________________________________________________________________
dense_14 (Dense)             (None, 4096)              37752832  
_________________________________________________________________
dense_15 (Dense)             (None, 11)                45067     
=================================================================
Total params: 50,970,763
Trainable params: 50,970,763
Non-trainable params: 0
_________________________________________________________________
Epoch 1/20
731/730 [==============================] - 38s 51ms/step - loss: 1.8968 - acc: 0.3188 - val_loss: 2.2904 - val_acc: 0.2494
Epoch 2/20
731/730 [==============================] - 36s 49ms/step - loss: 1.5948 - acc: 0.4367 - val_loss: 2.2876 - val_acc: 0.2939
…
