duser@8395372068e0:~$ python 12-01-19_Augmented_2.py 
Using TensorFlow backend.
Shape von immatrix1, 2 und gesamt
(35055, 154587)
(35055, 154587)
Shape von immatrix_val1, _valrot und gesamt
(8967, 154587)
(8967, 154587)
Label setzen
X_train shape: (35055, 227, 227, 3)
X_test shape: (8967, 227, 227, 3)
35055 train samples
8967 test samples
_________________________________________________________________
Layer (type)                 Output Shape              Param #   
=================================================================
conv2d_1 (Conv2D)            (None, 55, 55, 96)        34944     
_________________________________________________________________
max_pooling2d_1 (MaxPooling2 (None, 27, 27, 96)        0         
_________________________________________________________________
conv2d_2 (Conv2D)            (None, 23, 23, 256)       614656    
_________________________________________________________________
max_pooling2d_2 (MaxPooling2 (None, 11, 11, 256)       0         
_________________________________________________________________
conv2d_3 (Conv2D)            (None, 9, 9, 384)         885120    
_________________________________________________________________
conv2d_4 (Conv2D)            (None, 7, 7, 384)         1327488   
_________________________________________________________________
conv2d_5 (Conv2D)            (None, 5, 5, 256)         884992    
_________________________________________________________________
dropout_1 (Dropout)          (None, 5, 5, 256)         0         
_________________________________________________________________
flatten_1 (Flatten)          (None, 6400)              0         
_________________________________________________________________
dense_1 (Dense)              (None, 9216)              58991616  
_________________________________________________________________
dense_2 (Dense)              (None, 4096)              37752832  
_________________________________________________________________
dense_3 (Dense)              (None, 11)                45067     
=================================================================
Total params: 100,536,715
Trainable params: 100,536,715
Non-trainable params: 0
_________________________________________________________________
Epoch 1/50
2019-01-12 09:37:23.589599: I tensorflow/core/platform/cpu_feature_guard.cc:141] Your CPU supports instructions that this TensorFlow binary was not compiled to use: AVX2 FMA
…
