…
Using TensorFlow backend.
Anzahl Training Files:
46740
Anzahl Validation Files:
11956
Shape von immatrix1, 2 und gesamt
(11685, 120000)
(35055, 120000)
(46740, 120000)
Shape von immatrix_val1, _valrot und gesamt
(2989, 120000)
(8967, 120000)
(11956, 120000)
Label setzen
X_train shape: (46740, 200, 200, 3)
X_test shape: (11956, 200, 200, 3)
46740 train samples
11956 test samples
_________________________________________________________________
Layer (type)                 Output Shape              Param #   
=================================================================
conv2d_1 (Conv2D)            (None, 48, 48, 96)        34944     
_________________________________________________________________
max_pooling2d_1 (MaxPooling2 (None, 23, 23, 96)        0         
_________________________________________________________________
conv2d_2 (Conv2D)            (None, 19, 19, 256)       614656    
_________________________________________________________________
max_pooling2d_2 (MaxPooling2 (None, 9, 9, 256)         0         
_________________________________________________________________
conv2d_3 (Conv2D)            (None, 7, 7, 384)         885120    
_________________________________________________________________
conv2d_4 (Conv2D)            (None, 5, 5, 384)         1327488   
_________________________________________________________________
conv2d_5 (Conv2D)            (None, 3, 3, 256)         884992    
_________________________________________________________________
max_pooling2d_3 (MaxPooling2 (None, 1, 1, 256)         0         
_________________________________________________________________
dropout_1 (Dropout)          (None, 1, 1, 256)         0         
_________________________________________________________________
flatten_1 (Flatten)          (None, 256)               0         
_________________________________________________________________
dense_1 (Dense)              (None, 9216)              2368512   
_________________________________________________________________
dropout_2 (Dropout)          (None, 9216)              0         
_________________________________________________________________
dense_2 (Dense)              (None, 4096)              37752832  
_________________________________________________________________
dense_3 (Dense)              (None, 11)                45067     
=================================================================
Total params: 43,913,611
Trainable params: 43,913,611
Non-trainable params: 0
_________________________________________________________________
Epoch 1/50
2018-12-30 17:49:30.032134: I tensorflow/core/platform/cpu_feature_guard.cc:141] Your CPU supports instructions that this TensorFlow binary was not compiled to use: AVX2 FMA
…
