duser@8395372068e0:~$ python Augmented_classes2.py 
Using TensorFlow backend.
_________________________________________________________________
Layer (type)                 Output Shape              Param #   
=================================================================
conv2d_1 (Conv2D)            (None, 55, 55, 96)        34944     
_________________________________________________________________
max_pooling2d_1 (MaxPooling2 (None, 27, 27, 96)        0         
_________________________________________________________________
conv2d_2 (Conv2D)            (None, 23, 23, 256)       614656    
_________________________________________________________________
max_pooling2d_2 (MaxPooling2 (None, 11, 11, 256)       0         
_________________________________________________________________
conv2d_3 (Conv2D)            (None, 9, 9, 384)         885120    
_________________________________________________________________
conv2d_4 (Conv2D)            (None, 7, 7, 384)         1327488   
_________________________________________________________________
conv2d_5 (Conv2D)            (None, 5, 5, 256)         884992    
_________________________________________________________________
max_pooling2d_3 (MaxPooling2 (None, 2, 2, 256)         0         
_________________________________________________________________
dropout_1 (Dropout)          (None, 2, 2, 256)         0         
_________________________________________________________________
flatten_1 (Flatten)          (None, 1024)              0         
_________________________________________________________________
dense_1 (Dense)              (None, 9216)              9446400   
_________________________________________________________________
dropout_2 (Dropout)          (None, 9216)              0         
_________________________________________________________________
dense_2 (Dense)              (None, 4096)              37752832  
_________________________________________________________________
dense_3 (Dense)              (None, 2)                 8194      
=================================================================
Total params: 50,954,626
Trainable params: 50,954,626
Non-trainable params: 0
_________________________________________________________________
Found 1438 images belonging to 2 classes.
Found 546 images belonging to 2 classes.
Augmented_classes2.py:303: UserWarning: The semantics of the Keras 2 argument `steps_per_epoch` is n
…
