…
2018-12-27 16:06:50.476358: I tensorflow/core/common_runtime/gpu/gpu_device.cc:1115] Created TensorFlow device (/job:localhost/replica:0/task:0/device:GPU:2 with 30387 MB memory) -> physical GPU (device: 2, name: Tesla V100-DGXS-32GB, pci bus id: 0000:0e:00.0, compute capability: 7.0)
2018-12-27 16:06:50.476688: I tensorflow/core/common_runtime/gpu/gpu_device.cc:1115] Created TensorFlow device (/job:localhost/replica:0/task:0/device:GPU:3 with 30387 MB memory) -> physical GPU (device: 3, name: Tesla V100-DGXS-32GB, pci bus id: 0000:0f:00.0, compute capability: 7.0)
_________________________________________________________________
Layer (type)                 Output Shape              Param #   
=================================================================
conv2d_1 (Conv2D)            (None, 55, 55, 96)        34944     
_________________________________________________________________
activation_1 (Activation)    (None, 55, 55, 96)        0         
_________________________________________________________________
max_pooling2d_1 (MaxPooling2 (None, 27, 27, 96)        0         
_________________________________________________________________
conv2d_2 (Conv2D)            (None, 23, 23, 256)       614656    
_________________________________________________________________
activation_2 (Activation)    (None, 23, 23, 256)       0         
_________________________________________________________________
max_pooling2d_2 (MaxPooling2 (None, 11, 11, 256)       0         
_________________________________________________________________
conv2d_3 (Conv2D)            (None, 9, 9, 384)         885120    
_________________________________________________________________
activation_3 (Activation)    (None, 9, 9, 384)         0         
_________________________________________________________________
conv2d_4 (Conv2D)            (None, 7, 7, 384)         1327488   
_________________________________________________________________
activation_4 (Activation)    (None, 7, 7, 384)         0         
_________________________________________________________________
conv2d_5 (Conv2D)            (None, 5, 5, 256)         884992    
_________________________________________________________________
activation_5 (Activation)    (None, 5, 5, 256)         0         
_________________________________________________________________
max_pooling2d_3 (MaxPooling2 (None, 2, 2, 256)         0         
_________________________________________________________________
dropout_1 (Dropout)          (None, 2, 2, 256)         0         
_________________________________________________________________
flatten_1 (Flatten)          (None, 1024)              0         
_________________________________________________________________
dense_1 (Dense)              (None, 9216)              9446400   
_________________________________________________________________
dropout_2 (Dropout)          (None, 9216)              0         
_________________________________________________________________
dense_2 (Dense)              (None, 4096)              37752832  
_________________________________________________________________
dense_3 (Dense)              (None, 11)                45067     
=================================================================
Total params: 50,991,499
Trainable params: 50,991,499
Non-trainable params: 0
_________________________________________________________________
2018-12-27 16:07:09.815593: I tensorflow/core/common_runtime/gpu/gpu_device.cc:1511] Adding visible gpu devices: 0, 1, 2, 3
2018-12-27 16:07:09.815672: I tensorflow/core/common_runtime/gpu/gpu_device.cc:982] Device interconnect StreamExecutor with strength 1 edge matrix:
…
